models/model_kNN.pkl_06.npy (npy, 524336 bytes, 1 tensors)

array f8 [2, 16383, 2]
-42.984504 -159.332033 -17.634464 -159.332033 -42.984504 -71.125031 -17.634464 -159.332033
-12.093871 -90.239308 -34.223314 -71.125031 -42.984504 12.693226 -17.634464 -159.332033
34.010117 -128.610603 -12.093871 -90.239308 38.980482 -89.975987 -34.223314 -71.125031
48.743603 -21.944982999999997 -8.919803 12.693226 -42.984504 16.198857 -17.634464 -159.332033
17.054125 -98.197249 34.010117 -128.610603 34.165659999999995 -114.96638 -12.093871 -90.239308
34.899477000000005 -90.20369699999999 38.980482 -89.975987 38.980581 -79.209029 -34.223314 -71.125031
36.881409000000005 8.950514 49.178737 -21.944982999999997 48.743603 0.007487000000000001 -8.919803 12.734027000000001
50.07725 12.693226 -21.341755 16.198857 -42.984504 100.575634 -17.634464 -159.332033
18.997035 -112.05224799999999 17.054125 -98.197164 20.5671 -98.197249 34.010117 -122.750029
38.611266 -128.610603 34.165659999999995 -114.96638 34.176832 -105.25948100000001 -12.093871 -90.239162
30.037019 -90.239308 34.899691 -90.20369699999999 34.899477000000005 -77.52884499999999 38.980482 -89.975987
39.196094 -84.189954 38.980581 -79.209029 40.613492 -73.947233 -34.223314 -71.125031
43.357698 -63.598242000000006 36.881409000000005 8.966673 44.627508 8.950514 50.368637 -21.944982999999997
49.178737 -1.9862990000000003 48.743603 0.007487000000000001 52.200171999999995 0.11166300000000001 -8.919803 12.734027000000001
49.258775 12.738847 50.07725 12.711764 51.305589000000005 12.693226 -21.341755 16.198857
49.591466 16.268703 -42.984504 101.606401 4.586966 100.575634 -17.634464 -159.332033
33.30746 -118.50021799999999 18.997035 -103.43839799999999 26.233883000000002 -112.05224799999999 17.054125 -98.197164
20.526278 -97.478245 20.5671 -98.197249 30.140596999999996 -97.799112 34.043946999999996 -122.750029
34.010117 -118.545645 38.611266 -123.448907 47.649232 -128.610603 34.165659999999995 -114.96638
53.543077000000004 -113.93154399999999 34.176832 -105.20553999999998 39.708771999999996 -105.25948100000001 -12.093871 -90.137323
29.932246999999997 -90.239162 30.037019 -90.239308 30.099455 -84.333704 34.987601 -90.20369699999999
34.899691 -78.936293 34.899477000000005 -77.52884499999999 38.879515999999995 -77.528577 38.980482 -89.051415
42.192440999999995 -89.975987 39.196094 -84.189954 41.069966 -83.843532 38.980581 -79.209029
38.980731 -77.331949 40.613492 -73.947233 43.311254999999996 -73.719881 -34.223314 -71.125031
36.462938 -6.223534 43.488328 -63.598242000000006 43.357698 2.4062189999999997 36.881409000000005 8.966673
44.420573 10.688253999999999 44.627508 8.950563 46.004475 8.950514 50.368637 -21.944982999999997
50.596228 -2.68696 49.178737 -1.9862990000000003 53.554641000000004 -1.91547 48.768603999999996 0.007487000000000001
48.743603 2.348423 52.200171999999995 0.11166300000000001 53.474375 10.282475 -8.919803 12.734027000000001
46.089186 13.004824000000001 49.373426 12.738847 49.258775 14.497573000000001 50.077428000000005 12.711764
50.07725 14.421113 51.305589000000005 12.889938 55.938192 12.693226 39.302621 16.198857
-21.341755 18.358725 49.591564 16.268703 49.591466 18.141931 -37.627689000000004 101.606401
-42.984504 143.848557 4.586966 100.575634 4.869317 114.85781499999999 -17.634464 -159.332033
00000000: fe63 213a 047e 45c0 2b86 ab03 a0ea 63c0
00000010: 467d 923b 6ca2 31c0 2b86 ab03 a0ea 63c0
00000020: fe63 213a 047e 45c0 1eff 0582 00c8 51c0
00000030: 467d 923b 6ca2 31c0 2b86 ab03 a0ea 63c0
00000040: ec15 16dc 0f30 28c0 f46a 80d2 508f 56c0
00000050: 965e 9b8d 951c 41c0 1eff 0582 00c8 51c0
00000060: fe63 213a 047e 45c0 4a79 ad84 ee62 2940
00000070: 467d 923b 6ca2 31c0 2b86 ab03 a0ea 63c0
00000080: 1b11 8c83 4b01 4140 dd7a 4d0f 8a13 60c0
00000090: ec15 16dc 0f30 28c0 f46a 80d2 508f 56c0
000000a0: 8928 266f 807d 4340 8e94 2d92 767e 56c0
000000b0: 965e 9b8d 951c 41c0 1eff 0582 00c8 51c0
000000c0: 8f1a 1362 2e5f 4840 a546 e867 eaf1 35c0
000000d0: 7f86 376b f0d6 21c0 4a79 ad84 ee62 2940
000000e0: fe63 213a 047e 45c0 a794 d74a e832 3040
000000f0: 467d 923b 6ca2 31c0 2b86 ab03 a0ea 63c0
00000100: 60e5 d022 db0d 3140 cc0a 45ba 9f8c 58c0
00000110: 1b11 8c83 4b01 4140 dd7a 4d0f 8a13 60c0
00000120: af20 cd58 3415 4140 8be0 7f2b d9bd 5cc0
00000130: ec15 16dc 0f30 28c0 f46a 80d2 508f 56c0
00000140: 8a40 f50f 2273 4140 c552 245f 098d 56c0
00000150: 8928 266f 807d 4340 8e94 2d92 767e 56c0
00000160: 1c0a 9fad 837d 4340 99ba 2bbb 60cd 53c0
00000170: 965e 9b8d 951c 41c0 1eff 0582 00c8 51c0
00000180: 36b3 9602 d270 4240 c1c7 60c5 a9e6 2140
00000190: e6ca a0da e096 4840 a546 e867 eaf1 35c0
000001a0: 8f1a 1362 2e5f 4840 e88a 5242 b0aa 7e3f
000001b0: 7f86 376b f0d6 21c0 12c3 0e63 d277 2940
000001c0: d9ce f753 e309 4940 4a79 ad84 ee62 2940
000001d0: 963e 7441 7d57 35c0 a794 d74a e832 3040
000001e0: fe63 213a 047e 45c0 cd1d fd2f d724 5940
000001f0: 467d 923b 6ca2 31c0 2b86 ab03 a0ea 63c0
00000200: a5f7 8daf 3dff 3240 02d2 fe07 5803 5cc0
00000210: 60e5 d022 db0d 3140 b5fc c055 9e8c 58c0
00000220: c58f 3177 2d91 3440 cc0a 45ba 9f8c 58c0
00000230: 1b11 8c83 4b01 4140 4d83 a279 00b0 5ec0
00000240: 1094 dbf6 3d4e 4340 dd7a 4d0f 8a13 60c0
00000250: af20 cd58 3415 4140 8be0 7f2b d9bd 5cc0
00000260: 7171 546e a216 4140 bd3b 3256 9b50 5ac0
00000270: ec15 16dc 0f30 28c0 8a1c 226e 4e8f 56c0
00000280: a454 c213 7a09 3e40 f46a 80d2 508f 56c0
00000290: b5c0 1e13 2973 4140 c552 245f 098d 56c0
000002a0: 8a40 f50f 2273 4140 cce9 b298 d861 53c0
000002b0: 8928 266f 807d 4340 8e94 2d92 767e 56c0
000002c0: 8e78 b29b 1999 4340 a46f d234 280c 55c0
000002d0: 1c0a 9fad 837d 4340 99ba 2bbb 60cd 53c0
000002e0: c72d e6e7 864e 4440 492c 2977 9f7c 52c0
000002f0: 965e 9b8d 951c 41c0 1eff 0582 00c8 51c0
00000300: 1cec 4d0c c9ad 4540 fd8b a031 93cc 4fc0
00000310: 36b3 9602 d270 4240 38da 71c3 efee 2140
00000320: 3bfd a02e 5250 4640 c1c7 60c5 a9e6 2140
00000330: 3b8c 497f 2f2f 4940 a546 e867 eaf1 35c0
00000340: e6ca a0da e096 4840 763d d175 e1c7 ffbf
00000350: 8f1a 1362 2e5f 4840 e88a 5242 b0aa 7e3f
00000360: 96c9 703c 9f19 4a40 fc59 2c45 f295 bc3f
00000370: 7f86 376b f0d6 21c0 12c3 0e63 d277 2940
00000380: de02 098a 1fa1 4840 d47e 6b27 4a7a 2940
00000390: d9ce f753 e309 4940 b7f0 bc54 6c6c 2940
000003a0: 3982 548a 1da7 4940 4a79 ad84 ee62 2940
000003b0: 963e 7441 7d57 35c0 a794 d74a e832 3040
000003c0: 1459 6b28 b5cb 4840 4b56 45b8 c944 3040
000003d0: fe63 213a 047e 45c0 c0d0 2346 cf66 5940
000003e0: ac74 779d 0d59 1240 cd1d fd2f d724 5940
000003f0: 467d 923b 6ca2 31c0 2b86 ab03 a0ea 63c0
00000400: 016a 6ad9 5aa7 4040 b6b7 5b92 03a0 5dc0
00000410: a5f7 8daf 3dff 3240 6f28 7cb6 0edc 59c0
00000420: 2317 9cc1 df3b 3a40 02d2 fe07 5803 5cc0
00000430: 60e5 d022 db0d 3140 b5fc c055 9e8c 58c0
00000440: b39a ae27 ba86 3440 6f9e ea90 9b5e 58c0
00000450: c58f 3177 2d91 3440 cc0a 45ba 9f8c 58c0
00000460: 6bea 3c2a fe23 3e40 d575 a8a6 2473 58c0
00000470: efe0 270e a005 4140 4d83 a279 00b0 5ec0
00000480: 1b11 8c83 4b01 4140 758e 01d9 eba2 5dc0
00000490: 1094 dbf6 3d4e 4340 83fc 6ce4 badc 5ec0
000004a0: 22c2 bf08 1ad3 4740 dd7a 4d0f 8a13 60c0
000004b0: af20 cd58 3415 4140 8be0 7f2b d9bd 5cc0
000004c0: db1a 118c 83c5 4a40 3db2 b96a 9e7b 5cc0
000004d0: 7171 546e a216 4140 4481 3e91 274d 5ac0
000004e0: 0629 780a b9da 4340 bd3b 3256 9b50 5ac0
000004f0: ec15 16dc 0f30 28c0 457f 68e6 c988 56c0
00000500: 4acb 48bd a7ee 3d40 8a1c 226e 4e8f 56c0
00000510: a454 c213 7a09 3e40 f46a 80d2 508f 56c0
00000520: 766c 04e2 7519 3e40 d7a2 0568 5b15 55c0
00000530: 9a3f a6b5 697e 4140 c552 245f 098d 56c0
00000540: b5c0 1e13 2973 4140 529e 7939 ecbb 53c0
00000550: 8a40 f50f 2273 4140 cce9 b298 d861 53c0
00000560: 8427 f4fa 9370 4340 bd1a a034 d461 53c0
00000570: 8928 266f 807d 4340 87e1 2362 4a43 56c0
00000580: 6bb4 1ce8 a118 4540 8e94 2d92 767e 56c0
00000590: 8e78 b29b 1999 4340 a46f d234 280c 55c0
000005a0: 7dea 58a5 f488 4440 4948 a46d fcf5 54c0
000005b0: 1c0a 9fad 837d 4340 99ba 2bbb 60cd 53c0
000005c0: 3196 e997 887d 4340 27bc 04a7 3e55 53c0
000005d0: c72d e6e7 864e 4440 492c 2977 9f7c 52c0
000005e0: b5db 2e34 d7a7 4540 c100 c287 126e 52c0
000005f0: 965e 9b8d 951c 41c0 1eff 0582 00c8 51c0
00000600: af09 698d 413b 4240 1f2d ce18 e6e4 18c0
00000610: 4ddc 2a88 81be 4540 fd8b a031 93cc 4fc0
00000620: 1cec 4d0c c9ad 4540 4f1c 40bf ef3f 0340
00000630: 36b3 9602 d270 4240 38da 71c3 efee 2140
00000640: 514a 0856 d535 4640 afae 0ad4 6260 2540
00000650: 3bfd a02e 5250 4640 4793 8b31 b0e6 2140
00000660: 2653 05a3 9200 4740 c1c7 60c5 a9e6 2140
00000670: 3b8c 497f 2f2f 4940 a546 e867 eaf1 35c0
00000680: d17a f832 514c 4940 0248 6de2 e47e 05c0
00000690: e6ca a0da e096 4840 763d d175 e1c7 ffbf
000006a0: a802 ee79 fec6 4a40 8481 e7de c3a5 febf
000006b0: 92c9 a99d 6162 4840 e88a 5242 b0aa 7e3f
000006c0: 8f1a 1362 2e5f 4840 c764 71ff 91c9 0240
000006d0: 96c9 703c 9f19 4a40 fc59 2c45 f295 bc3f
000006e0: 1f85 eb51 b8bc 4a40 0de0 2d90 a090 2440
000006f0: 7f86 376b f0d6 21c0 12c3 0e63 d277 2940
00000700: 6aa1 6472 6a0b 4740 c978 944a 7802 2a40
00000710: f1bc 546c ccaf 4840 d47e 6b27 4a7a 2940
00000720: de02 098a 1fa1 4840 c7be 64e3 c1fe 2c40
00000730: b9e5 2329 e909 4940 b7f0 bc54 6c6c 2940
00000740: d9ce f753 e309 4940 45d7 851f 9cd7 2c40
00000750: 3982 548a 1da7 4940 70ef 1af4 a5c7 2940
00000760: 36af eaac 16f8 4b40 4a79 ad84 ee62 2940
00000770: 9a0a f148 bca6 4340 a794 d74a e832 3040
00000780: 963e 7441 7d57 35c0 f241 cf66 d55b 3240
00000790: d7be 805e b8cb 4840 4b56 45b8 c944 3040
000007a0: 1459 6b28 b5cb 4840 e049 0b97 5524 3240
000007b0: 8c87 f71c 58d0 42c0 c0d0 2346 cf66 5940
000007c0: fe63 213a 047e 45c0 5779 0261 27fb 6140
000007d0: ac74 779d 0d59 1240 cd1d fd2f d724 5940
000007e0: 656d 533c 2e7a 1340 2ac1 e270 e6b6 5c40
000007f0: 467d 923b 6ca2 31c0 2b86 ab03 a0ea 63c0
